…
WARNING: Using flat backbone without ObsEncoder. Make sure your observations are properly flattened and scaled!
2026-03-25 14:36:01,027	WARNING catalog.py:548 -- Custom ModelV2 should accept all custom options as **kwargs, instead of expecting them in config['custom_model_config']!
Opcode Logits - Max: 0.18373112380504608, Min: -0.23867493867874146
Opcode Probs NaN: False
Opcode Logits - Max: 0.18373112380504608, Min: -0.23867493867874146
Opcode Probs NaN: False
2026-03-25 14:36:01,904	WARNING util.py:61 -- Install gputil for GPU system monitoring.
SpecRLHierarchicalModel(
  (flat_backbone): Sequential(
    (0): Linear(in_features=4200, out_features=256, bias=True)
    (1): LayerNorm((256,), eps=1e-05, elementwise_affine=True)
    (2): ReLU()
    (3): Linear(in_features=256, out_features=256, bias=True)
    (4): LayerNorm((256,), eps=1e-05, elementwise_affine=True)
    (5): ReLU()
  )
  (hierarchical_head): HierarchicalActionHead(
    (opcode_embed): Embedding(7, 64, padding_idx=0)
    (reg_embed): Embedding(7, 64, padding_idx=0)
    (imm_embed): Embedding(9, 64, padding_idx=0)
    (opcode_head): Sequential(
      (0): Linear(in_features=256, out_features=128, bias=True)
      (1): ReLU()
      (2): Linear(in_features=128, out_features=7, bias=True)
    )
    (reg_src_head): Sequential(
      (0): Linear(in_features=320, out_features=128, bias=True)
      (1): ReLU()
      (2): Linear(in_features=128, out_features=7, bias=True)
    )
    (reg_dst_head): Sequential(
      (0): Linear(in_features=384, out_features=128, bias=True)
      (1): ReLU()
      (2): Linear(in_features=128, out_features=7, bias=True)
    )
    (imm_head): Sequential(
      (0): Linear(in_features=448, out_features=128, bias=True)
      (1): ReLU()
      (2): Linear(in_features=128, out_features=9, bias=True)
    )
  )
  (value_head): Linear(in_features=256, out_features=1, bias=True)
)
[36m(RolloutWorker pid=2092711)[0m #=======================================================#
[36m(RolloutWorker pid=2092711)[0m #                     RESETTING                         #
[36m(RolloutWorker pid=2092711)[0m #=======================================================#
[36m(RolloutWorker pid=2092711)[0m NUMBER OF TEST CASES: 1
[36m(RolloutWorker pid=2092711)[0m Opcode Logits - Max: 0.13395731151103973, Min: -0.20318686962127686
…
