…
WARNING: [executor] SMT is on! You may experience false positives.

Sandbox Base Address and Code Base Address (base 10): (18404650425324974080, 18404650425314267136)
/home/hz25d/miniconda3/envs/specrl/lib/python3.9/site-packages/torch/cuda/__init__.py:829: UserWarning: Can't initialize NVML
  warnings.warn("Can't initialize NVML")
2026-03-11 16:44:36,610	WARNING catalog.py:548 -- Custom ModelV2 should accept all custom options as **kwargs, instead of expecting them in config['custom_model_config']!
2026-03-11 16:44:37,505	WARNING util.py:61 -- Install gputil for GPU system monitoring.

SpecRLHiModel(
  (flat_backbone): Sequential(
    (0): Linear(in_features=4200, out_features=256, bias=True)
    (1): LayerNorm((256,), eps=1e-05, elementwise_affine=True)
    (2): ReLU()
    (3): Linear(in_features=256, out_features=256, bias=True)
    (4): LayerNorm((256,), eps=1e-05, elementwise_affine=True)
    (5): ReLU()
  )
  (encoder): ObsEncoder(
    (instr_embeds): ModuleList(
      (0): Embedding(366, 64, padding_idx=0)
      (1-2): 2 x Embedding(25, 64, padding_idx=0)
      (3): Embedding(4, 64, padding_idx=0)
    )
    (instr_proj): Linear(in_features=256, out_features=256, bias=True)
    (htrace_proj): Sequential(
      (0): Linear(in_features=20, out_features=32, bias=True)
      (1): LayerNorm((32,), eps=1e-05, elementwise_affine=True)
      (2): ReLU()
    )
    (ctrace_proj): Sequential(
      (0): Linear(in_features=20, out_features=32, bias=True)
      (1): LayerNorm((32,), eps=1e-05, elementwise_affine=True)
      (2): ReLU()
    )
    (recovery_proj): Sequential(
      (0): Linear(in_features=20, out_features=32, bias=True)
      (1): LayerNorm((32,), eps=1e-05, elementwise_affine=True)
      (2): ReLU()
    )
    (transient_proj): Sequential(
      (0): Linear(in_features=20, out_features=32, bias=True)
      (1): LayerNorm((32,), eps=1e-05, elementwise_affine=True)
      (2): ReLU()
    )
    (row_fusion): Sequential(
      (0): Linear(in_features=384, out_features=256, bias=True)
      (1): LayerNorm((256,), eps=1e-05, elementwise_affine=True)
      (2): ReLU()
    )
  )
  (instruction_head): AutoregressiveInstructionHead(
    (opcode_embed): Embedding(7, 64, padding_idx=0)
    (reg_embed): Embedding(7, 64, padding_idx=0)
    (imm_embed): Embedding(9, 64, padding_idx=0)
    (opcode_head): Sequential(
      (0): Linear(in_features=256, out_features=128, bias=True)
      (1): ReLU()
      (2): Linear(in_features=128, out_features=7, bias=True)
    )
    (reg_src_head): Sequential(
      (0): Linear(in_features=320, out_features=128, bias=True)
      (1): ReLU()
      (2): Linear(in_features=128, out_features=7, bias=True)
    )
    (reg_dst_head): Sequential(
      (0): Linear(in_features=384, out_features=128, bias=True)
      (1): ReLU()
      (2): Linear(in_features=128, out_features=7, bias=True)
    )
    (imm_head): Sequential(
      (0): Linear(in_features=448, out_features=128, bias=True)
      (1): ReLU()
      (2): Linear(in_features=128, out_features=9, bias=True)
    )
  )
  (value_head): Linear(in_features=256, out_features=1, bias=True)
)
[36m(RolloutWorker pid=3923894)[0m #=======================================================#
[36m(RolloutWorker pid=3923894)[0m #                     RESETTING                         #
[36m(RolloutWorker pid=3923894)[0m #=======================================================#
[36m(RolloutWorker pid=3923894)[0m NUMBER OF TEST CASES: 1
[36m(RolloutWorker pid=3923894)[0m NUMBER OF STEPS: 1
…
