…
/home/hz25d/miniconda3/envs/specrl/lib/python3.9/site-packages/ray/rllib/utils/torch_utils.py:372: UserWarning: var(): degrees of freedom is <= 0. Correction should be strictly less than the reduction factor (input numel divided by output numel). (Triggered internally at /pytorch/aten/src/ATen/native/ReduceOps.cpp:1839.)
  y_var = torch.var(squeezed_y, dim=0)
/home/hz25d/miniconda3/envs/specrl/lib/python3.9/site-packages/ray/rllib/utils/torch_utils.py:373: UserWarning: var(): degrees of freedom is <= 0. Correction should be strictly less than the reduction factor (input numel divided by output numel). (Triggered internally at /pytorch/aten/src/ATen/native/ReduceOps.cpp:1839.)
  diff_var = torch.var(squeezed_y - pred.squeeze(), dim=0)
2026-03-24 21:24:01,822	WARNING util.py:61 -- Install gputil for GPU system monitoring.
SpecRLHierarchicalModel(
  (flat_backbone): Sequential(
    (0): Linear(in_features=4200, out_features=256, bias=True)
    (1): LayerNorm((256,), eps=1e-05, elementwise_affine=True)
    (2): ReLU()
    (3): Linear(in_features=256, out_features=256, bias=True)
    (4): LayerNorm((256,), eps=1e-05, elementwise_affine=True)
    (5): ReLU()
  )
  (hierarchical_head): HierarchicalActionHead(
    (opcode_embed): Embedding(7, 64, padding_idx=0)
    (reg_embed): Embedding(7, 64, padding_idx=0)
    (imm_embed): Embedding(9, 64, padding_idx=0)
    (opcode_head): Sequential(
      (0): Linear(in_features=256, out_features=128, bias=True)
      (1): ReLU()
      (2): Linear(in_features=128, out_features=7, bias=True)
    )
    (reg_src_head): Sequential(
      (0): Linear(in_features=320, out_features=128, bias=True)
      (1): ReLU()
      (2): Linear(in_features=128, out_features=7, bias=True)
    )
    (reg_dst_head): Sequential(
      (0): Linear(in_features=384, out_features=128, bias=True)
      (1): ReLU()
      (2): Linear(in_features=128, out_features=7, bias=True)
    )
    (imm_head): Sequential(
      (0): Linear(in_features=448, out_features=128, bias=True)
      (1): ReLU()
      (2): Linear(in_features=128, out_features=9, bias=True)
    )
  )
  (value_head): Linear(in_features=256, out_features=1, bias=True)
)
[36m(RolloutWorker pid=2033817)[0m #=======================================================#
[36m(RolloutWorker pid=2033817)[0m #                     RESETTING                         #
[36m(RolloutWorker pid=2033817)[0m #=======================================================#
[36m(RolloutWorker pid=2033817)[0m NUMBER OF TEST CASES: 1
[36m(RolloutWorker pid=2033817)[0m NUMBER OF END_GAME: 1
…
